Icanfly/controller/rl_controller/scripts/ppo_quadrotor.pth (torch, 150802 bytes, 11 tensors)

fc1.weight f4 [128, 10]
000000 83 59 23 3d 04 a4 aa bd f7 b9 62 3c 23 8b 31 bd
       0.039880287 -0.08332065 0.013838283 -0.04334558
000010 c0 28 2b 3e 69 b3 f4 bd 75 a9 1b be 78 2e 0e 3e
       0.16714764 -0.11948282 -0.15201361 0.13884914
000020 c2 7e 30 3e 4f b9 94 bd da af 20 bd a2 48 26 3c
       0.17235854 -0.07261907 -0.039230205 0.010149153
000030 da c7 93 bd 07 e5 04 3d dc 34 fd 3d 83 e8 40 be
       -0.07215853 0.03244498 0.12363598 -0.18838696
000040 45 f6 a8 3d 93 73 31 3d f1 25 07 3e ff 95 b6 bc
       0.08250097 0.04332311 0.13198067 -0.02228832
000050 dc 8e 25 be b9 e7 6d bd dc b1 20 bd 47 e8 8d bd
       -0.16167778 -0.058082316 -0.03923212 -0.06929069
000060 27 a0 f1 3d 2e ee 12 3e 70 4d a8 bc c7 f4 bd 3d
       0.11798125 0.14348671 -0.020544738 0.09275203
000070 03 cf a7 3d 08 cf 84 bd 56 13 a0 bd e4 46 f7 3c
       0.08193781 -0.064848006 -0.07816188 0.03018517
000080 06 ee 24 be 8c 4f 54 bd db c7 13 be 34 8a 3a be
       -0.16106424 -0.051833674 -0.14431708 -0.18216783
000090 19 4b 39 3d f0 40 96 3d 6c 65 e4 3c bd 05 09 3e
       0.045237634 0.073366046 0.027880393 0.13381095
0000a0 a7 9b e2 bd 02 a7 3e be 21 11 07 be 33 54 47 be
       -0.110648446 -0.18618396 -0.13190128 -0.19465713
0000b0 de 8e b9 bd e4 17 1c 3e 56 65 14 3e c5 db 53 3d
       -0.09060453 0.15243489 0.14491782 0.05172326
0000c0 b7 d9 33 3e 55 2c 53 3e 22 95 50 3e 61 0a ef 3d
       0.1756352 0.2062238 0.2036939 0.116719015
0000d0 e7 64 1a 3e 5b 97 d4 bc 99 06 a2 bd 7b a1 75 3c
       0.15077554 -0.025951078 -0.07911415 0.014992113
0000e0 65 57 23 3e e4 ac c0 3d 9f 77 10 be 82 ce 3e 3d
       0.15951307 0.09407976 -0.14108132 0.04658366
0000f0 a8 6e 30 3e b5 40 2e be 8b ad 44 be 44 90 3e 3e
       0.17229712 -0.17016871 -0.19206826 0.1860972
000100 45 8a 28 bd 93 ef 81 3d 3a d4 ab bd ab 34 43 be
       -0.04114749 0.06344523 -0.083900884 -0.1906306
000110 6c 71 34 be 00 6e ec 3c cd b4 18 3e 41 c5 f5 bd
       -0.17621392 0.028861046 0.1491272 -0.12000514
000120 4b c2 4f 3d 5b 41 10 be 68 e4 e4 bd 37 c3 33 3e
       0.0507224 -0.14087431 -0.111763775 0.17554937
000130 c9 c6 31 be a1 b7 4d 3e 7a e8 cc 3d 52 b1 0c bd
       -0.17360987 0.2008958 0.10005279 -0.034348793
000140 10 31 50 be 5a 46 10 be bd 66 90 bd e1 d3 37 bd
       -0.20331216 -0.14089337 -0.07050846 -0.044879798
000150 b0 cf 1c 3e 29 66 44 be 07 d2 4d be 8d 8a e8 bd
       0.15313601 -0.19179596 -0.2009965 -0.113545515
000160 d6 67 f4 3d be 93 d0 bb f3 d4 81 3d 0c 73 45 3e
       0.11933868 -0.0063652685 0.06339445 0.19282168
000170 ba a1 8a bd c1 62 46 3e 6c ed 29 3c 19 5c d8 3a
       -0.06769128 0.19373609 0.010371547 0.001650694
000180 16 b2 d5 3d f6 27 ce bd af 39 06 be 45 f1 43 3e
       0.10434358 -0.10066216 -0.13107942 0.19135006
000190 8c 81 94 bc 9e 26 0a be 52 11 04 be 93 f0 02 3e
       -0.018128179 -0.13491294 -0.12897232 0.12787084
0001a0 ca 1f 3b 3d bd c8 3a be b9 e2 b8 bd 35 bc 1a be
       0.045684613 -0.18240638 -0.09027619 -0.15110858
0001b0 7d af 3f be 29 4e 18 3d d8 e7 46 3d dd 09 b3 bd
       -0.18719287 0.037183914 0.048560947 -0.08742116
0001c0 3d e6 0e 3d 05 c8 c6 bd ca 23 01 be 45 33 9e 3d
       0.03488754 -0.097061194 -0.12611309 0.07724623
0001d0 aa f3 fd bc 09 94 4a 3d d4 71 2a 3d 34 e1 de 3c
       -0.030999977 0.049457584 0.04161246 0.027206995
0001e0 8d 8e 2b be 15 86 25 3e 1c f9 d4 3d 98 2a 4e 3e
       -0.16753598 0.1616443 0.10399076 0.20133436
0001f0 09 23 2a be 4e 3c 81 bc 36 1f 2c 3d 66 e3 f2 3d
       -0.16614927 -0.015775826 0.042021953 0.11859779
000200 ec b9 16 3e 4f f4 23 3d 65 77 26 3e 70 80 49 3e
       0.14719361 0.040027913 0.16256483 0.19677901
000210 cc b4 18 3e e4 1b 4a 3e ab fb ad 3d a4 94 51 be
       0.14912719 0.19737202 0.084952675 -0.20466858
000220 04 d5 43 3e 00 c1 a6 bd dd 93 f5 bd ae ac 13 bd
       0.19124228 -0.081422806 -0.11991093 -0.036053352
000230 ec e7 18 be 0e 41 36 3d 1b bc 47 be a1 e5 20 be
       -0.14932221 0.044495635 -0.1950535 -0.15712596
000240 a1 05 db bd e5 63 a5 3c ed bd 3d bd 81 ed cf 3c
       -0.10694433 0.020189235 -0.046323705 0.025381805
000250 1d 3e 1a bd ff fb e4 bd a0 c0 31 3e 1f db ac bd
       -0.037656892 -0.11180877 0.17358637 -0.084402315
000260 dd 32 12 3e 7a 8a 19 bd db 16 0a be fc 5f e7 bd
       0.14277215 -0.037485577 -0.13485281 -0.112976044
000270 bb 5e f9 bd 82 66 01 3e 8b d6 c8 3d 5d 6e 33 3e
       -0.121762715 0.1263676 0.09806546 0.17522569
000280 40 aa 4c 3d 30 bf 2a 3c ee 88 0f 3e 6b 84 74 bd
       0.04996705 0.010421559 0.14017078 -0.059696596
000290 93 5a c6 bd 96 25 c2 bd 05 1d d7 bd ab 11 fb bd
       -0.096852444 -0.09479825 -0.10503582 -0.12259229
0002a0 56 ae e4 bd df 18 aa 3d 37 c6 0a 3d 2e 16 28 3d
       -0.111660644 0.08305525 0.03388044 0.041036777
0002b0 aa 67 d2 3d 13 9c b0 3d 0d 49 31 be fa d6 01 be
       0.102736786 0.08623519 -0.17313023 -0.12679663
0002c0 cb dc 04 be be a3 10 be 5c 3f 45 3d 7b 62 cf bb
       -0.12974851 -0.14124963 0.048156127 -0.0063288785
0002d0 70 cb 49 be 38 90 e8 bd cd 76 45 3e 49 0b ee bd
       -0.19706511 -0.113556325 0.192836 -0.11623246
0002e0 fa 18 12 3e c4 aa 90 3d 5a 45 a3 bd db 77 19 3e
       0.1426734 0.07063821 -0.07972212 0.14987127
0002f0 5f ed 3c be 2c 13 08 3e 8b 55 c5 bd b7 9f e8 bb
       -0.18449925 0.13288563 -0.09635457 -0.0070991176
000300 a6 07 2c be 8a f3 28 3e 8b 05 36 3e de 79 59 3d
       -0.16799793 0.16499153 0.17775552 0.053094737
000310 39 f0 d1 bc 58 ff eb bd ca 79 e7 bd 36 22 b4 3a
       -0.025627242 -0.11523312 -0.11302526 0.0013743106
000320 8f e7 ce bc b2 54 50 be 27 aa 0c be 97 e0 18 3c
       -0.0252569 -0.20344809 -0.13736783 0.00933089
000330 60 33 0f 3e 3d a7 50 3c a1 57 a5 bd 58 49 36 3d
       0.13984442 0.012735185 -0.080733545 0.04450354
000340 78 ec d4 3d ae 73 f7 bd 19 28 4e 3e c2 46 02 be
       0.10396665 -0.12082611 0.20132484 -0.12722304
000350 84 55 2c be 72 f0 29 3d 10 db 52 be 9a 0c 1d bd
       -0.16829497 0.041489072 -0.20591378 -0.038342096
000360 ae b7 20 3e e8 05 a9 3d c9 1e 1e 3e ae ab 35 bc
       0.15695068 0.0825308 0.15441431 -0.011088295
000370 06 65 0b be 7e e1 22 be 55 57 41 3e 89 48 83 3d
       -0.13612756 -0.15906331 0.18880971 0.06410319
000380 16 35 c4 3c a3 3d 42 be e9 dd 19 3d 27 ed 82 bd
       0.023951095 -0.18968825 0.037565146 -0.063928895
000390 87 85 bb 3d d2 73 10 bc 3d cd b9 3d df 37 a9 3d
       0.09156328 -0.008816676 0.09072349 0.0826261
0003a0 ba 39 da 3d 88 7d 47 bd ea 1e d5 bd cb 89 03 3e
       0.10655542 -0.0487037 -0.10406287 0.12845533
0003b0 28 84 ba 3d 61 15 da 3d 7c 26 a1 bd 58 98 b3 bd
       0.09107238 0.10648609 -0.078686684 -0.08769292
0003c0 bc a0 62 3c a5 79 17 be 71 01 3b be a9 12 36 3d
       0.013832267 -0.14792497 -0.18262269 0.04445139
0003d0 01 96 31 be 33 d6 19 3e 31 da e8 3d 94 9f d0 3c
       -0.17342378 0.15023117 0.11369742 0.025466718
0003e0 b5 77 e5 bd bb b3 fd 3d 5d 88 18 be 58 ff 54 be
       -0.11204473 0.123877965 -0.14895768 -0.20800531
0003f0 63 1d 03 be 46 41 15 3d b7 4a d4 3d 2d 01 7a bd
       -0.12804179 0.036439203 0.10365813 -0.061036278

fc1.bias f4 [128]
000000 0a d7 23 3c 0a d7 23 3c 0a d7 23 3c 0a d7 23 3c
       0.01 0.01 0.01 0.01
000010 0a d7 23 3c 0a d7 23 3c 0a d7 23 3c 0a d7 23 3c
       0.01 0.01 0.01 0.01
000020 0a d7 23 3c 0a d7 23 3c 0a d7 23 3c 0a d7 23 3c
       0.01 0.01 0.01 0.01
000030 0a d7 23 3c 0a d7 23 3c 0a d7 23 3c 0a d7 23 3c
       0.01 0.01 0.01 0.01
000040 0a d7 23 3c 0a d7 23 3c 0a d7 23 3c 0a d7 23 3c
       0.01 0.01 0.01 0.01
000050 0a d7 23 3c 0a d7 23 3c 0a d7 23 3c 0a d7 23 3c
       0.01 0.01 0.01 0.01
000060 0a d7 23 3c 0a d7 23 3c 0a d7 23 3c 0a d7 23 3c
       0.01 0.01 0.01 0.01
000070 0a d7 23 3c 0a d7 23 3c 0a d7 23 3c 0a d7 23 3c
       0.01 0.01 0.01 0.01
000080 0a d7 23 3c 0a d7 23 3c 0a d7 23 3c 0a d7 23 3c
       0.01 0.01 0.01 0.01
000090 0a d7 23 3c 0a d7 23 3c 0a d7 23 3c 0a d7 23 3c
       0.01 0.01 0.01 0.01
0000a0 0a d7 23 3c 0a d7 23 3c 0a d7 23 3c 0a d7 23 3c
       0.01 0.01 0.01 0.01
0000b0 0a d7 23 3c 0a d7 23 3c 0a d7 23 3c 0a d7 23 3c
       0.01 0.01 0.01 0.01
0000c0 0a d7 23 3c 0a d7 23 3c 0a d7 23 3c 0a d7 23 3c
       0.01 0.01 0.01 0.01
0000d0 0a d7 23 3c 0a d7 23 3c 0a d7 23 3c 0a d7 23 3c
       0.01 0.01 0.01 0.01
0000e0 0a d7 23 3c 0a d7 23 3c 0a d7 23 3c 0a d7 23 3c
       0.01 0.01 0.01 0.01
0000f0 0a d7 23 3c 0a d7 23 3c 0a d7 23 3c 0a d7 23 3c
       0.01 0.01 0.01 0.01
000100 0a d7 23 3c 0a d7 23 3c 0a d7 23 3c 0a d7 23 3c
       0.01 0.01 0.01 0.01
000110 0a d7 23 3c 0a d7 23 3c 0a d7 23 3c 0a d7 23 3c
       0.01 0.01 0.01 0.01
000120 0a d7 23 3c 0a d7 23 3c 0a d7 23 3c 0a d7 23 3c
       0.01 0.01 0.01 0.01
000130 0a d7 23 3c 0a d7 23 3c 0a d7 23 3c 0a d7 23 3c
       0.01 0.01 0.01 0.01
000140 0a d7 23 3c 0a d7 23 3c 0a d7 23 3c 0a d7 23 3c
       0.01 0.01 0.01 0.01
000150 0a d7 23 3c 0a d7 23 3c 0a d7 23 3c 0a d7 23 3c
       0.01 0.01 0.01 0.01
000160 0a d7 23 3c 0a d7 23 3c 0a d7 23 3c 0a d7 23 3c
       0.01 0.01 0.01 0.01
000170 0a d7 23 3c 0a d7 23 3c 0a d7 23 3c 0a d7 23 3c
       0.01 0.01 0.01 0.01
000180 0a d7 23 3c 0a d7 23 3c 0a d7 23 3c 0a d7 23 3c
       0.01 0.01 0.01 0.01
000190 0a d7 23 3c 0a d7 23 3c 0a d7 23 3c 0a d7 23 3c
       0.01 0.01 0.01 0.01
0001a0 0a d7 23 3c 0a d7 23 3c 0a d7 23 3c 0a d7 23 3c
       0.01 0.01 0.01 0.01
0001b0 0a d7 23 3c 0a d7 23 3c 0a d7 23 3c 0a d7 23 3c
       0.01 0.01 0.01 0.01
0001c0 0a d7 23 3c 0a d7 23 3c 0a d7 23 3c 0a d7 23 3c
       0.01 0.01 0.01 0.01
0001d0 0a d7 23 3c 0a d7 23 3c 0a d7 23 3c 0a d7 23 3c
       0.01 0.01 0.01 0.01
0001e0 0a d7 23 3c 0a d7 23 3c 0a d7 23 3c 0a d7 23 3c
       0.01 0.01 0.01 0.01
0001f0 0a d7 23 3c 0a d7 23 3c 0a d7 23 3c 0a d7 23 3c
       0.01 0.01 0.01 0.01

fc2.weight f4 [128, 128]
000000 46 b1 f9 ba 5a b0 ed 3d 7d 77 c0 39 ed 2c 7b bd
       -0.0019050024 0.11605902 0.0003671012 -0.06132214
000010 17 7a d5 bd df 46 d9 3d 32 3e 2b 3d cc be b3 3d
       -0.104236774 0.10609221 0.04180736 0.08776626
000020 d3 f4 f1 3d a9 35 e0 bd 78 96 eb bd 98 4d e8 3d
       0.11814275 -0.10947735 -0.11503309 0.11342925
000030 5b 6e b9 bd 8b da 2d 3c 3a 47 27 3d 21 1d 16 3b
       -0.09054252 0.010611187 0.04083941 0.0022905546
000040 c2 51 09 3d 2a 82 16 be 0b ec 1b 3c d1 b0 b1 3d
       0.033525236 -0.14698091 0.009516726 0.08676303
000050 9d 01 15 3e 95 f1 fa bd 09 51 c3 bd c0 96 c7 3d
       0.14551397 -0.12253109 -0.095369406 0.0974555
000060 07 4a 6b 3d 4c a2 74 bd 12 b3 c3 bc f2 8b 3e 3d
       0.057443645 -0.05972509 -0.023889098 0.04652018
000070 cb 7d f2 3d 2a a3 85 bd 3d 1f 00 be ea c4 0e bc
       0.11840399 -0.06525262 -0.12511916 -0.00871394
000080 2e ca c7 3d 37 6c 8f 3d d8 40 c2 3d 06 5a 17 be
       0.097553596 0.07003062 0.09485024 -0.14780435
000090 65 cd ab 3c a8 3d ed bd 89 ed e0 bd d2 f4 35 bd
       0.020971963 -0.115840256 -0.10982806 -0.044422932
0000a0 81 7f b9 bd 9e 07 f3 3d 82 0d d2 3d 54 65 db 3d
       -0.090575226 0.11866687 0.10256483 0.10712686
0000b0 02 03 18 be 84 63 22 bc 1d 59 62 3d c8 ec 03 bd
       -0.14844897 -0.009911422 0.055260766 -0.032208234
0000c0 8a ca 4f 3d 65 28 8c bc b5 af 08 bd 26 6f 9b bd
       0.050730266 -0.017109105 -0.033370692 -0.07589559
0000d0 09 ef c6 bb c1 68 12 3e cb 97 98 bd 12 94 1c be
       -0.0060709757 0.14297773 -0.07450827 -0.1529086
0000e0 49 44 50 3c 25 a2 70 bc 1a fe 7e bd f6 fd 1a be
       0.012711593 -0.014687096 -0.06225405 -0.15135941
0000f0 e0 cb 36 bd bf 51 08 bd ae 82 ff 3d fc 33 a7 3d
       -0.044628024 -0.033281084 0.12476097 0.08164212
000100 7b 32 a5 bd d6 05 d6 bd 8d 79 d3 bc 18 0d 1a bb
       -0.08066269 -0.10450332 -0.025814796 -0.002350634
000110 b1 d9 ad 3d a8 b1 93 bd 6d 4a f8 3b d4 d8 f0 bd
       0.08488787 -0.072116196 0.0075772316 -0.11760107
000120 2b 40 e2 3d d5 29 d7 3d df 00 dc 3d 85 7d 18 3c
       0.11047395 0.10506026 0.10742354 0.00930727
000130 4c 85 f7 bd d7 0a 0b bd 6e 15 a1 bd 72 e6 83 3d
       -0.12085971 -0.033945885 -0.078654155 0.06440438
000140 80 57 15 3e 88 2b d2 bd 9b c8 00 3e 1b 8c 6f 3d
       0.1458416 -0.10262209 0.12576525 0.058483224
000150 2d 11 c4 bd 6b 7b 6f 3d 8c 22 84 bd 1b 0e 78 3c
       -0.095735885 0.05846731 -0.06451902 0.015140082
000160 5a d3 bc bd 8a 26 08 3e c6 b7 09 bd 99 f9 6c bb
       -0.092199996 0.13295951 -0.033622526 -0.0036159514
000170 97 06 90 bd 09 9e e9 3d dd 56 46 bb d3 68 e1 bd
       -0.07032507 0.11407096 -0.0030264177 -0.11006322
000180 51 b9 d2 3d b2 55 14 3e 3a 7d 07 3e 09 d9 37 bd
       0.102892525 0.14485815 0.13231364 -0.044884715
000190 7d 87 a9 bd fc 23 03 3e 07 68 29 bd ae fb 6a bd
       -0.082777955 0.12806696 -0.041358974 -0.057368927
0001a0 aa 9a 5b 3d ea 9b 0e be bf bb 0a be fc 24 e3 3d
       0.053614296 -0.13926664 -0.13548182 0.110910386
0001b0 8e 99 04 3e f9 ee b9 bd 7a 8e 15 be e2 d3 98 bd
       0.12949201 -0.090787835 -0.14605132 -0.074622884
0001c0 47 c6 ad 3d bf ee ec bd 62 5c 99 bc dd 9e d8 3d
       0.08485084 -0.11568975 -0.01872081 0.10577176
0001d0 d8 ef 81 bd f6 16 25 bc a7 34 01 3e 90 ae 91 bd
       -0.06344575 -0.010076275 0.12617742 -0.07113373
0001e0 66 16 00 3e 8c 56 64 3c bc f1 df 3c 91 bf 93 bc
       0.12508544 0.01393665 0.027336948 -0.018035682
0001f0 7c 53 2e 3c b7 84 81 3c 82 3b ce 3d e0 c7 ce bd
       0.010640021 0.015810354 0.10069944 -0.10096717
000200 b5 6f 3f bd ad 6d 01 3d 9b b2 4e bd aa 13 f5 bc
       -0.04673739 0.031598736 -0.0504633 -0.029916603
000210 0a d8 a5 3d 2f d8 0b be cd 0e 1c 3e 8f 2d d0 bd
       0.08097847 -0.13656686 0.15240021 -0.101649396
000220 43 a6 e2 3d 73 7e 0d be 87 de d0 bb 06 02 02 bd
       0.11066868 -0.13817768 -0.0063741836 -0.03174021
000230 c9 08 01 bd 27 80 e7 bd 8a 32 f2 bd 67 e5 47 3d
       -0.03150252 -0.1130374 -0.11826046 0.04880276
000240 2a d3 e1 bd aa 48 e1 3d 72 92 16 3e 48 f1 ef 3d
       -0.110266045 0.11000188 0.14704302 0.117159426
000250 b1 97 b6 bc 3e 0e eb 3c 63 73 79 bd 48 c6 6d 3c
       -0.022289129 0.028693315 -0.060901057 0.014512606
000260 54 bb d7 bd 66 28 af bd c8 f8 15 be 78 b0 f1 3d
       -0.10533777 -0.08552627 -0.14645684 0.11801237
000270 33 05 82 3d ee 81 b0 3d a3 a9 f3 bc a8 09 b3 bd
       0.06348648 0.08618532 -0.029743975 -0.08742076
000280 48 be bd 3d d3 64 e0 3d e8 ae 87 bd ef 6c 6d 3d
       0.09264809 0.10956731 -0.066251576 0.057965215
000290 f5 6e fe 3d 0f 80 0a 3d 72 44 e5 3d 8d af f9 bc
       0.12423507 0.033813532 0.111946955 -0.030479217
0002a0 cc 41 03 3d 0d de 01 be 59 88 ef 3d b8 60 b1 bc
       0.03204517 -0.12682362 0.11695928 -0.021652564
0002b0 57 8b 89 3c 50 f7 30 3b 87 a9 53 3d d1 17 98 3d
       0.016790075 0.0027002878 0.051675346 0.074264176
0002c0 e7 91 14 3e ce 1c d0 bd 04 0f 0d 3e eb 15 37 3d
       0.14508782 -0.10161744 0.1377526 0.044698637
0002d0 44 c5 39 3d bf dc 0e 3e 6a 38 91 3d fe 6f eb bd
       0.045354143 0.13951395 0.07090838 -0.1149597
0002e0 5a 7b 3e 3d cb b5 34 3d bc ef ae 3d b5 54 56 bd
       0.046504356 0.044118684 0.085418195 -0.052326877
0002f0 d0 6c ae bd a2 34 bd bd 9c 34 09 3e 1b d2 81 bd
       -0.08516848 -0.092385545 0.13398975 -0.063389026
000300 e8 35 be 3d 66 a7 04 3e 20 1d dc bd 32 73 de bc
       0.092876256 0.12954482 -0.10747743 -0.027154539
000310 7d f7 05 3e bb 51 6c 3c f8 fd d3 3d be d0 f8 bd
       0.1308269 0.014423783 0.10351175 -0.121491894
000320 7b da 8e bd b5 1a 17 be aa 59 8d bd 2d 69 c5 bd
       -0.069752656 -0.14756282 -0.06901868 -0.09639201
000330 ff 04 33 3d cc 48 f8 bd 58 0a 04 be a9 99 b6 3d
       0.043705937 -0.1212326 -0.12894571 0.08916027
000340 9a aa be 3c 9b 78 d4 3b 8e 27 f4 bd 50 92 cd bd
       0.023274709 0.006484104 -0.11921607 -0.100376725
000350 c1 41 f9 bd d1 9f 3f bd f0 c4 0e be a9 ed 15 be
       -0.12170745 -0.046783272 -0.13942313 -0.14641441
000360 0f 32 07 be aa 2c 14 bd 84 e8 a1 3d f5 be 49 3d
       -0.1320269 -0.036175407 0.07905677 0.049254376
000370 e4 6f bf bd d5 b8 04 3e c6 3e d5 bd d4 90 fc bd
       -0.09347513 0.12961133 -0.10412364 -0.12332311
000380 7e 23 cb 3d 70 98 e7 3d 38 f0 ff 3c bb a2 77 3d
       0.09918879 0.11308372 0.031242475 0.060457926
000390 f6 b7 70 3c 39 cf f7 3c cc b7 bc 3d 8c 1a 87 bd
       0.014692297 0.030250179 0.09214744 -0.0659686
0003a0 36 d1 0e 3e b1 ea f2 bc 43 78 5a 3d 92 7e 5b bd
       0.13946995 -0.029652925 0.053337347 -0.053587504
0003b0 6b 1e 06 3e e3 05 19 bd a7 92 8c 3d f2 43 e1 bd
       0.13097541 -0.03735913 0.06863909 -0.10999288
0003c0 aa 33 02 bd 3e 0f c1 3d 09 5e 57 3b ec aa 4f bd
       -0.031787552 0.09426735 0.0032862446 -0.050700113
0003d0 14 90 0c 3d 64 b4 5e bd c6 4f 2e bd be 4b 74 3d
       0.03431709 -0.054371253 -0.042556547 0.059642546
0003e0 d1 21 ac bd 21 ad 0a be b0 54 d9 3d f2 1f bf bd
       -0.084048875 -0.13542606 0.10611856 -0.09332265
0003f0 2c d3 13 3e 51 8d 0d 3e 4a a4 ab 3d 31 e6 0f be
       0.14436024 0.13823439 0.08380945 -0.14052655

fc2.bias f4 [128]
000000 0a d7 23 3c 0a d7 23 3c 0a d7 23 3c 0a d7 23 3c
       0.01 0.01 0.01 0.01
000010 0a d7 23 3c 0a d7 23 3c 0a d7 23 3c 0a d7 23 3c
       0.01 0.01 0.01 0.01
000020 0a d7 23 3c 0a d7 23 3c 0a d7 23 3c 0a d7 23 3c
       0.01 0.01 0.01 0.01
000030 0a d7 23 3c 0a d7 23 3c 0a d7 23 3c 0a d7 23 3c
       0.01 0.01 0.01 0.01
000040 0a d7 23 3c 0a d7 23 3c 0a d7 23 3c 0a d7 23 3c
       0.01 0.01 0.01 0.01
000050 0a d7 23 3c 0a d7 23 3c 0a d7 23 3c 0a d7 23 3c
       0.01 0.01 0.01 0.01
000060 0a d7 23 3c 0a d7 23 3c 0a d7 23 3c 0a d7 23 3c
       0.01 0.01 0.01 0.01
000070 0a d7 23 3c 0a d7 23 3c 0a d7 23 3c 0a d7 23 3c
       0.01 0.01 0.01 0.01
000080 0a d7 23 3c 0a d7 23 3c 0a d7 23 3c 0a d7 23 3c
       0.01 0.01 0.01 0.01
000090 0a d7 23 3c 0a d7 23 3c 0a d7 23 3c 0a d7 23 3c
       0.01 0.01 0.01 0.01
0000a0 0a d7 23 3c 0a d7 23 3c 0a d7 23 3c 0a d7 23 3c
       0.01 0.01 0.01 0.01
0000b0 0a d7 23 3c 0a d7 23 3c 0a d7 23 3c 0a d7 23 3c
       0.01 0.01 0.01 0.01
0000c0 0a d7 23 3c 0a d7 23 3c 0a d7 23 3c 0a d7 23 3c
       0.01 0.01 0.01 0.01
0000d0 0a d7 23 3c 0a d7 23 3c 0a d7 23 3c 0a d7 23 3c
       0.01 0.01 0.01 0.01
0000e0 0a d7 23 3c 0a d7 23 3c 0a d7 23 3c 0a d7 23 3c
       0.01 0.01 0.01 0.01
0000f0 0a d7 23 3c 0a d7 23 3c 0a d7 23 3c 0a d7 23 3c
       0.01 0.01 0.01 0.01
000100 0a d7 23 3c 0a d7 23 3c 0a d7 23 3c 0a d7 23 3c
       0.01 0.01 0.01 0.01
000110 0a d7 23 3c 0a d7 23 3c 0a d7 23 3c 0a d7 23 3c
       0.01 0.01 0.01 0.01
000120 0a d7 23 3c 0a d7 23 3c 0a d7 23 3c 0a d7 23 3c
       0.01 0.01 0.01 0.01
000130 0a d7 23 3c 0a d7 23 3c 0a d7 23 3c 0a d7 23 3c
       0.01 0.01 0.01 0.01
000140 0a d7 23 3c 0a d7 23 3c 0a d7 23 3c 0a d7 23 3c
       0.01 0.01 0.01 0.01
000150 0a d7 23 3c 0a d7 23 3c 0a d7 23 3c 0a d7 23 3c
       0.01 0.01 0.01 0.01
000160 0a d7 23 3c 0a d7 23 3c 0a d7 23 3c 0a d7 23 3c
       0.01 0.01 0.01 0.01
000170 0a d7 23 3c 0a d7 23 3c 0a d7 23 3c 0a d7 23 3c
       0.01 0.01 0.01 0.01
000180 0a d7 23 3c 0a d7 23 3c 0a d7 23 3c 0a d7 23 3c
       0.01 0.01 0.01 0.01
000190 0a d7 23 3c 0a d7 23 3c 0a d7 23 3c 0a d7 23 3c
       0.01 0.01 0.01 0.01
0001a0 0a d7 23 3c 0a d7 23 3c 0a d7 23 3c 0a d7 23 3c
       0.01 0.01 0.01 0.01
0001b0 0a d7 23 3c 0a d7 23 3c 0a d7 23 3c 0a d7 23 3c
       0.01 0.01 0.01 0.01
0001c0 0a d7 23 3c 0a d7 23 3c 0a d7 23 3c 0a d7 23 3c
       0.01 0.01 0.01 0.01
0001d0 0a d7 23 3c 0a d7 23 3c 0a d7 23 3c 0a d7 23 3c
       0.01 0.01 0.01 0.01
0001e0 0a d7 23 3c 0a d7 23 3c 0a d7 23 3c 0a d7 23 3c
       0.01 0.01 0.01 0.01
0001f0 0a d7 23 3c 0a d7 23 3c 0a d7 23 3c 0a d7 23 3c
       0.01 0.01 0.01 0.01

out.weight f4 [4, 128]
000000 f3 df 3c bd e6 00 a6 3d 4b 8b a7 3b 55 2c 36 be
       -0.046112012 0.0810564 0.0051130406 -0.17790349
000010 e7 9f 4c be e1 38 18 bd 30 5b 45 3e c6 6e 4e 3e
       -0.19982873 -0.03716362 0.19273067 0.20159444
000020 f8 ac de bb 94 38 14 3e 09 88 8c 3d 01 22 40 be
       -0.006795522 0.14474708 0.06861884 -0.18762971
000030 6f da ff bd f9 aa 41 3d a0 40 cf 3d 01 14 68 bc
       -0.12492835 0.047282193 0.10119748 -0.014164926
000040 01 66 62 3d a6 48 27 3e 24 db f2 3c 09 9f c0 3c
       0.05527306 0.16336307 0.02964551 0.023513334
000050 77 e8 20 3e 8b a8 fd bd d3 40 56 be 08 ef 2f 3e
       0.15713678 -0.12385663 -0.20923166 0.17181027
000060 fc ff 4d 3e 57 d2 d9 bd 44 70 1f bd 6a 64 bd 3d
       0.20117182 -0.10635822 -0.038925424 0.09247668
000070 b0 d3 34 3d b6 d6 01 be d2 f8 e8 bc 89 c5 a6 3d
       0.044147193 -0.12679562 -0.02843896 0.081431456
000080 e5 28 8a 3d ba bf 4a be b1 1c 11 be af ec 1b be
       0.06746081 -0.197997 -0.14171101 -0.15227006
000090 16 a1 39 3e 06 bb c8 bd d5 af 85 3d 71 47 83 bd
       0.18127856 -0.09801297 0.06527678 -0.06410111
0000a0 d8 a7 c3 3d 0b 09 0c be 9b 27 19 be f8 69 97 bd
       0.09553498 -0.13675325 -0.14956515 -0.07393259
0000b0 a4 b9 a8 3d 96 a2 c7 3d df d8 82 bd f9 a7 e2 3d
       0.08238533 0.09747808 -0.06389021 0.110671945
0000c0 15 ba bb 3d 56 45 49 3e 64 4c f0 3d e4 81 12 be
       0.09166352 0.19655356 0.1173332 -0.14307362
0000d0 81 d5 3d 3d 95 6b 53 3e 54 84 3d bd e6 a5 3a 3e
       0.04634619 0.20646508 -0.046268776 0.18227348
0000e0 3a 50 07 3e db 5a a4 bd e1 f3 f8 bd 46 3a 0f 3e
       0.13214198 -0.08025142 -0.12155891 0.13987073
0000f0 3a c5 8e bd bb 99 1e 3c d9 af 60 bd 70 9d 54 be
       -0.06971212 0.009680207 -0.0548552 -0.20763183
000100 5e b4 3e 3e e5 1d cb bd d3 8f 59 be 61 2f 4b be
       0.18623492 -0.09917811 -0.21246271 -0.19842292
000110 6b 0c 51 bd 4d e1 0c 3e 73 b2 53 3e 9b b6 38 be
       -0.051037233 0.1375782 0.20673542 -0.18038408
000120 df 66 53 bd 6f 15 40 be 24 2a 38 3d 51 ba b8 bc
       -0.051611777 -0.18758176 0.044962063 -0.02254978
000130 ec 2e f8 3d 0b 50 d2 bd d3 0a 79 3d b6 7e 06 be
       0.12118325 -0.10269173 0.06080134 -0.13134274
000140 c7 cf 4b be bb 47 66 3d 20 dc ca 3d 3e 57 2b 3e
       -0.1990348 0.05622075 0.09905267 0.16732499
000150 c8 06 27 be 16 76 d0 3d 06 34 30 be c8 b0 d0 3d
       -0.1631118 0.10178773 -0.17207345 0.10189968
000160 59 1e 6e b9 e8 41 f8 bd a0 63 da 3d b8 b7 82 bc
       -0.00022708754 -0.121219456 0.10663533 -0.015956745
000170 9d b1 68 3d 01 f4 05 bd 1b 22 04 bc 2c 66 97 3d
       0.05681001 -0.032703403 -0.008064772 0.073925346
000180 07 9f 16 3d 65 ce 39 3e 8b 41 99 bd 1d fc 55 bc
       0.036772754 0.1814514 -0.074832045 -0.013060597
000190 ec fb 71 bd 14 ec 59 3e d7 9c 3c 3e b2 b1 1d be
       -0.059078142 0.21281463 0.18419205 -0.15399817
0001a0 cd 87 52 3e 4e 80 19 3b a5 f1 0f 3e 59 b7 43 be
       0.20559616 0.0023422423 0.14057024 -0.1911291
0001b0 01 67 90 bd 95 01 87 3d a5 4d c0 bc 4a e4 7c 3d
       -0.070508964 0.065920986 -0.023474524 0.06174115
0001c0 3c 7d 7a bb bd 4e e2 3c c3 72 93 ba e3 9a 32 be
       -0.0038221618 0.027625436 -0.0011249412 -0.17441897
0001d0 3c 0a 1d 3e 94 da eb bd e9 56 4e 3e 19 31 ef 3d
       0.15335935 -0.115163 0.20150341 0.116792865
0001e0 60 9c d9 bd 21 0c b1 bb 18 55 51 be fc 79 3a 3e
       -0.10625529 -0.005403057 -0.20442617 0.18210596
0001f0 72 94 56 bb 5c e9 3d 3d 65 fd 41 3e cc df a1 bd
       -0.003274229 0.046365127 0.18944319 -0.07904014
000200 95 d2 05 3e e1 8b e9 bb 4c ee 11 be 5a be 29 3e
       0.13068612 -0.0071272706 -0.1425106 0.1657652
000210 22 f6 69 3d 6c 4b d6 bc 95 6c 39 be 98 b7 f6 3d
       0.057119496 -0.02615901 -0.18107827 0.120467365
000220 3c 83 4e be d5 88 36 be 23 2c 80 bd f0 64 c1 bc
       -0.2016725 -0.17825635 -0.062584184 -0.023607701
000230 91 2c a8 3d 44 66 7f bb c3 73 82 b9 36 78 48 be
       0.08211625 -0.0038970867 -0.0002488178 -0.19577107
000240 9b f1 1a be b3 c7 2d 3e 06 67 02 3d 43 02 4d 3e
       -0.15131228 0.1697071 0.031836532 0.20020394
000250 d9 53 d8 3d de 60 25 3e b8 a2 b9 3d eb 57 8d bd
       0.10562868 0.16150233 0.09064239 -0.06901535
000260 53 0c 52 be 45 42 c7 3d f0 02 db 3c aa 50 21 be
       -0.20512514 0.09729437 0.0267348 -0.15753427
000270 e5 02 f9 3d 67 41 46 be 4d 5f 0d 3d 6a dd 94 3d
       0.12158755 -0.19360887 0.034514714 0.07268794
000280 98 09 0a bd 34 f1 d9 3d 09 bb 5a bc de 96 0c bd
       -0.033700556 0.10641709 -0.013350257 -0.034323566
000290 25 20 13 be b2 4c 07 bc cf 4e fb 3b d3 8d ca bd
       -0.14367731 -0.008258032 0.007669307 -0.09890332
0002a0 4b a4 df 3d db 7f 4c be d0 2c 03 3e e7 8b 17 3e
       0.10920008 -0.19970648 0.12810063 0.14799462
0002b0 e0 93 43 3e 84 f5 07 3e 00 f6 92 3d 37 4a 32 be
       0.19099379 0.1327725 0.07175827 -0.17411123
0002c0 e3 7a b2 3c a3 0f 01 3e 08 cd 0a be d9 fe 25 bc
       0.021787113 0.12603621 -0.13554776 -0.010131561
0002d0 91 f4 2e be 3a 66 89 bd c6 06 11 3b 62 f5 30 3e
       -0.17085482 -0.06708951 0.0022129281 0.17281106
0002e0 46 c3 3c 3d 78 f4 eb bd 63 cd 03 3e ae 50 07 be
       0.046084665 -0.11521238 0.12871318 -0.1321437
0002f0 3e 3a ae 3d c8 47 4a 3e 46 e3 07 be 1e 8a 3a 3e
       0.085072026 0.19753945 -0.13270292 0.1821675
000300 d1 5c 49 3e 2c 74 1b be 9e 0c 9c bd f3 dc 3f 3e
       0.19664313 -0.15181035 -0.07619594 0.18736629
000310 28 30 2f bc 87 22 e5 bd 40 7a 82 3d 63 fd 58 be
       -0.010692634 -0.11188226 0.063709736 -0.2119041
000320 ab f7 ab bd 5c 28 87 3d 8a 4e 8b 3d 52 4a 15 3e
       -0.08396848 0.06599495 0.068020895 0.14579132
000330 da bd de 3d 7d 2c a7 bd 79 28 d9 bd 81 2e 53 3e
       0.10876055 -0.08162782 -0.10603423 0.20623209
000340 01 cf 1f be 7d 4b 43 bd 11 1d 23 3c 5c d1 a9 bd
       -0.1560631 -0.047679413 0.00995566 -0.08291885
000350 c7 d1 af 3d f1 c0 ee 3d bd 07 ce 3d 62 71 25 be
       0.08584934 0.116578944 0.1006007 -0.16156533
000360 d5 5b 00 be 3a fb ef bc 46 b3 12 be d9 6a 30 3e
       -0.12535031 -0.029294599 -0.143262 0.17228259
000370 25 34 56 be cc c3 41 3e 33 6a d2 3d d2 9e 62 bd
       -0.20918329 0.18922347 0.10274162 -0.055327244
000380 65 92 36 bd 43 d3 b8 3c ad b9 f9 3c 19 56 23 3d
       -0.044573206 0.022561675 0.030484045 0.03987703
000390 88 62 15 3e a0 01 2e 3d d2 bc fa bd b8 9a 4c be
       0.14588368 0.04248202 -0.12243046 -0.19980896
0003a0 1b 56 14 3e 5b 83 2a 3d e9 20 20 3e 1d 99 7f 3d
       0.14485972 0.041629177 0.15637554 0.06240188
0003b0 43 c1 18 3e a2 e8 00 be 50 90 45 be 68 10 35 be
       0.14917473 -0.12588742 -0.19293332 -0.1768204
0003c0 bf 3d 99 bd 53 a1 e1 3d 03 08 d4 3d 11 ea ab 3d
       -0.0748248 0.11017098 0.103530906 0.08394254
0003d0 9b 61 46 3e 94 25 0d bc 30 47 37 bd 0a 3c 22 3e
       0.19373171 -0.008614916 -0.044745624 0.15843216
0003e0 29 bf 12 be ce 82 95 bd f0 b4 56 be 72 ee 94 bd
       -0.14330734 -0.0730034 -0.2096746 -0.07272042
0003f0 56 49 03 bd f2 14 d1 3c c8 ee 18 3e 7d a7 27 3d
       -0.03205236 0.025522683 0.14934838 0.040931214

out.bias f4 [4]
000000 0a d7 23 3c 0a d7 23 3c 0a d7 23 3c 0a d7 23 3c
       0.01 0.01 0.01 0.01

fc1.weight f4 [128, 10]
000000 c0 81 a9 bd ec b6 ad bd 21 04 9d bd bd 44 d6 3c
       -0.08276701 -0.08482155 -0.07666803 0.026155824
000010 4b dd 04 be 0c c6 0e 3e 1f 83 26 3d 17 61 5b 3d
       -0.12975042 0.13942736 0.04065239 0.05355939
000020 9e fd 33 3e 0d ee 1d 3e 8d 3c 2b 3e f6 29 24 3e
       0.17577216 0.1542284 0.16722317 0.16031632
000030 da b4 07 be ab e0 02 3d 8d 56 c3 3d 9d 54 6d 3c
       -0.13252583 0.03195254 0.095379926 0.014485505
000040 fd 43 24 be da 50 3c 3e 65 29 22 3e 5c 81 bf 3d
       -0.1604156 0.18390217 0.15836103 0.09350845
000050 d7 37 66 bd 9e 4c 25 bd 1b 42 47 3d 30 ff 1d 3e
       -0.056205597 -0.04035627 0.048647027 0.15429378
000060 2b ef d1 3d 2c 1c de 3d 6b eb e0 bd e0 0f 04 3d
       0.10250696 0.10845217 -0.109824024 0.032241702
000070 86 97 c1 3d c2 ac ce 3d d5 24 38 bc 98 81 d1 3d
       0.09452729 0.10091545 -0.01123925 0.10229796
000080 fc 0b 82 bc 11 49 8d bc 0e e6 fc bb 73 ad 28 3e
       -0.015874855 -0.017246755 -0.0077178543 0.16472416
000090 2a 02 ee 3d 65 40 f2 3d 21 e9 26 be 01 e6 04 3e
       0.116215065 0.118286885 -0.16299869 0.12978365
0000a0 7f 83 08 be a7 1c fe 3d d1 14 15 be c0 f2 31 3e
       -0.13331412 0.12407809 -0.14558722 0.17377758
0000b0 d9 d0 68 bd 3a 1a 39 3e 80 9a 24 be 0d 54 90 3d
       -0.056839798 0.18076411 -0.16074562 0.070472814
0000c0 13 03 12 bd 2f dd 1e be d6 27 e6 3d 1b 1d 76 3d
       -0.035647463 -0.15514062 0.11238067 0.06008635
0000d0 3e fe d0 3d 22 25 43 3e 2f 06 d6 3c f2 7a a8 bc
       0.10204743 0.19057134 0.026125995 -0.020566437
0000e0 60 c0 27 3b 7a 4c 1c 3e a1 00 05 3c a0 f6 c3 3d
       0.0025596842 0.15263548 0.008117826 0.09568524
0000f0 0a 57 31 be 8e ab 84 bd 28 f7 3f be ed 5d 25 3e
       -0.17318359 -0.06478034 -0.18746626 0.16149111
000100 c3 60 92 3d f6 bc 9f 3d 31 38 11 3d 36 b9 1d 3e
       0.07147362 0.07799713 0.03545398 0.15402684
000110 6e 44 50 bd 2a 9f 43 be 75 1d 4a 3e 49 6b 45 be
       -0.05084651 -0.19103685 0.197378 -0.19279207
000120 fb 9a 2b be 23 09 c2 bc a6 87 30 3e 60 4f 1c be
       -0.16758339 -0.023685997 0.17239246 -0.15264654
000130 b0 4a e7 bd 67 d6 20 3e f3 dd 0b 3e 49 2e 8d bd
       -0.112935424 0.15706788 0.13658886 -0.06893594
000140 16 01 2b be 13 c1 3b 3a 95 67 2b 3e 67 59 4d 3d
       -0.16699633 0.0007162254 0.16738732 0.05013409
000150 78 4d 18 be 28 16 dc 3c a4 11 2b be 14 0c c8 3d
       -0.14873302 0.026866034 -0.16705948 0.09767929
000160 9c c8 6f 3d dd 9c 02 3e ce b2 c3 3d 94 45 7c 3d
       0.058540925 0.12755151 0.09555589 0.061589792
000170 27 1e 1c be 68 55 44 be e6 05 15 3e 6a 4e 8e bd
       -0.15245877 -0.19173205 0.14553031 -0.0694855
000180 f1 be 48 be 52 b6 71 bc 65 49 3e 3e 54 ab 27 3e
       -0.19604088 -0.014752941 0.18582685 0.1637395
000190 91 c5 18 3e 5c 25 af 3d 43 9c ce bd 8a 40 3f bd
       0.14919116 0.085520476 -0.10088398 -0.04669241
0001a0 c3 04 8c 3d 8d 1a 01 be bc 56 07 be 7a 17 3e be
       0.06836846 -0.12607785 -0.1321668 -0.18563643
0001b0 75 d3 83 bd 52 65 27 be 74 57 52 be 71 19 1c 3e
       -0.064368166 -0.16347244 -0.20541173 0.1524408
0001c0 9c 08 34 be 51 14 24 be 1d 46 12 3d 4e 66 e3 3c
       -0.17581409 -0.16023375 0.035711396 0.027758744
0001d0 20 f2 87 bd 19 0d c2 bd 46 37 3a be 08 7b 23 3c
       -0.066379786 -0.094751544 -0.18185148 0.009978063
0001e0 e9 9c 1e be 8c fa b8 bd bd aa 33 3e a3 c4 42 3e
       -0.15489544 -0.09032163 0.175456 0.19020323
0001f0 1a 13 70 bc fc 1d 74 3d a9 f8 dd bc f2 a3 be bc
       -0.014652992 0.059598908 -0.02709611 -0.023271535
000200 0e 3c 4e bd 62 13 07 be 74 69 a0 bd ea fb 0e 3e
       -0.05035024 -0.13190988 -0.078326136 0.13963285
000210 e4 a9 64 bd cf 11 4f be 20 99 27 bd 0e 8d 1a be
       -0.055826083 -0.20221637 -0.040917516 -0.1509287
000220 44 aa dc bd 86 ab 27 3c 2f 88 ab bd 39 25 b0 bc
       -0.10774663 0.0102337655 -0.08375584 -0.021502124
000230 14 03 0c bd ff 67 be bb 7b 28 24 3e 2d fe 5b bd
       -0.034182623 -0.005810737 0.16031067 -0.053709198
000240 55 fd ac bc 42 d1 96 3d cf 3c 5c bd 8c 7f 8f 3c
       -0.021116892 0.073641315 -0.05376893 0.017516874
000250 82 78 2a 3e 36 8f 3b be 2e 61 80 bd 29 78 eb 3c
       0.16647533 -0.1831635 -0.062685356 0.02874382
000260 ee 4d ba 3d be f7 1a bd c5 f4 9a bc 0b d4 ba 3d
       0.09096895 -0.03783392 -0.018915543 0.09122475
000270 ff dc b6 3c 70 36 4d 3e 58 7f 90 3d ca 52 ed bd
       0.022322176 0.20040298 0.07055539 -0.115880564
000280 f1 49 0e 3e 38 53 39 3e b0 ef db 3b 24 bf 74 bd
       0.13895394 0.18098152 0.0067119226 -0.0597526
000290 82 15 3e be d3 ef 10 3e f1 79 2a 3e 01 26 29 3e
       -0.18562892 0.14153986 0.1664808 0.16518404
0002a0 ac 73 1f be 4b 07 18 bd 73 a2 0c 3e 70 4d 33 be
       -0.15571469 -0.03711633 0.13733844 -0.17510009
0002b0 1d 0d c3 bd 0d 58 b5 bd 7a 5b 3a 3e 3f e2 c0 bd
       -0.095239855 -0.08854685 0.18198958 -0.09418153
0002c0 57 0d 94 bd 43 c4 20 3e 97 cf 28 be 5e 8b b0 bd
       -0.07229107 0.15699868 -0.16485439 -0.08620332
0002d0 1f 90 52 3e 91 94 6a 3c f4 11 39 be f1 11 0c be
       0.2056279 0.014317648 -0.18073255 -0.13678719
0002e0 dc 50 7b bd 59 44 f3 bd 44 51 50 3e b8 1c 02 bd
       -0.06135641 -0.11878271 0.203435 -0.03176567
0002f0 a2 a6 f2 bd dc 4d 2a bd e6 e5 00 3d 33 e6 52 3e
       -0.11848189 -0.04157816 0.03146925 0.20595627
000300 41 f9 44 3e 77 ba 3e bd 5b 2f c1 3d 53 a3 22 bb
       0.19235708 -0.046564545 0.094328605 -0.0024816587
000310 70 79 01 3e 2b dc 0c be 3e 65 4a 3e b9 e0 24 3e
       0.12643981 -0.13755862 0.19765183 0.1610135
000320 ec 6e 1f be 99 35 3a be 43 1f c5 3d 8f e4 b3 bd
       -0.15569657 -0.18184508 0.09625103 -0.087838285
000330 e0 ae 7b 3d f4 08 9d 3c ce 3f 45 3d 2e 72 60 bd
       0.06144607 0.019169308 0.048156552 -0.05479639
000340 f9 55 07 be 9e c5 c5 bd e2 87 50 3e 8b 62 12 3e
       -0.1321639 -0.09656833 0.20364335 0.14295404
000350 db 60 04 3e ab 06 44 3e 4e 2e a9 bd e6 8b 22 be
       0.12927572 0.19143169 -0.08260785 -0.1587368
000360 e5 8d 54 3e b1 c9 39 3d 16 8b 8d bd c6 59 82 3d
       0.20757253 0.045358364 -0.06911294 0.06364779
000370 e3 b9 bd 3c d5 ea 0e be ff bf 73 bd 26 8f 88 bd
       0.023159927 -0.13956769 -0.059509274 -0.066679284
000380 1c a1 0e be 67 51 50 3e a1 ec c7 3d 65 19 06 be
       -0.13928646 0.20343553 0.0976193 -0.13095625
000390 45 94 32 be 6a 84 11 3e 7f 12 d1 3d 61 28 f7 bd
       -0.17439373 0.14210668 0.10208606 -0.120682485
0003a0 f1 28 98 bc cd 46 c1 bb cf 8a 3f be 4e f2 a8 3d
       -0.01857421 -0.0058983327 -0.18705295 0.08249341
0003b0 67 f7 db 3d 93 63 74 3d 98 be 07 3c 75 e0 26 bd
       0.107405476 0.059665274 0.008285187 -0.040741403
0003c0 b1 f3 b0 bd 7b ed bd 3d a6 01 ae bd ba 1e af 3d
       -0.086402304 0.092738114 -0.08496408 0.085507825
0003d0 fb 88 92 bd 89 9a ee bd b7 b6 17 3e f0 06 48 3e
       -0.07155033 -0.11650569 0.14815794 0.19533896
0003e0 62 ee f8 bb eb 90 21 3a 57 0f 25 3c b6 7a 21 3d
       -0.007596777 0.0006163257 0.010074458 0.039423667
0003f0 d8 3a 3c 3c d3 9c 27 bd 51 e8 b1 bd 43 20 27 3d
       0.011488639 -0.040921044 -0.08686889 0.04080225

fc1.bias f4 [128]
000000 0a d7 23 3c 0a d7 23 3c 0a d7 23 3c 0a d7 23 3c
       0.01 0.01 0.01 0.01
000010 0a d7 23 3c 0a d7 23 3c 0a d7 23 3c 0a d7 23 3c
       0.01 0.01 0.01 0.01
000020 0a d7 23 3c 0a d7 23 3c 0a d7 23 3c 0a d7 23 3c
       0.01 0.01 0.01 0.01
000030 0a d7 23 3c 0a d7 23 3c 0a d7 23 3c 0a d7 23 3c
       0.01 0.01 0.01 0.01
000040 0a d7 23 3c 0a d7 23 3c 0a d7 23 3c 0a d7 23 3c
       0.01 0.01 0.01 0.01
000050 0a d7 23 3c 0a d7 23 3c 0a d7 23 3c 0a d7 23 3c
       0.01 0.01 0.01 0.01
000060 0a d7 23 3c 0a d7 23 3c 0a d7 23 3c 0a d7 23 3c
       0.01 0.01 0.01 0.01
000070 0a d7 23 3c 0a d7 23 3c 0a d7 23 3c 0a d7 23 3c
       0.01 0.01 0.01 0.01
000080 0a d7 23 3c 0a d7 23 3c 0a d7 23 3c 0a d7 23 3c
       0.01 0.01 0.01 0.01
000090 0a d7 23 3c 0a d7 23 3c 0a d7 23 3c 0a d7 23 3c
       0.01 0.01 0.01 0.01
0000a0 0a d7 23 3c 0a d7 23 3c 0a d7 23 3c 0a d7 23 3c
       0.01 0.01 0.01 0.01
0000b0 0a d7 23 3c 0a d7 23 3c 0a d7 23 3c 0a d7 23 3c
       0.01 0.01 0.01 0.01
0000c0 0a d7 23 3c 0a d7 23 3c 0a d7 23 3c 0a d7 23 3c
       0.01 0.01 0.01 0.01
0000d0 0a d7 23 3c 0a d7 23 3c 0a d7 23 3c 0a d7 23 3c
       0.01 0.01 0.01 0.01
0000e0 0a d7 23 3c 0a d7 23 3c 0a d7 23 3c 0a d7 23 3c
       0.01 0.01 0.01 0.01
0000f0 0a d7 23 3c 0a d7 23 3c 0a d7 23 3c 0a d7 23 3c
       0.01 0.01 0.01 0.01
000100 0a d7 23 3c 0a d7 23 3c 0a d7 23 3c 0a d7 23 3c
       0.01 0.01 0.01 0.01
000110 0a d7 23 3c 0a d7 23 3c 0a d7 23 3c 0a d7 23 3c
       0.01 0.01 0.01 0.01
000120 0a d7 23 3c 0a d7 23 3c 0a d7 23 3c 0a d7 23 3c
       0.01 0.01 0.01 0.01
000130 0a d7 23 3c 0a d7 23 3c 0a d7 23 3c 0a d7 23 3c
       0.01 0.01 0.01 0.01
000140 0a d7 23 3c 0a d7 23 3c 0a d7 23 3c 0a d7 23 3c
       0.01 0.01 0.01 0.01
000150 0a d7 23 3c 0a d7 23 3c 0a d7 23 3c 0a d7 23 3c
       0.01 0.01 0.01 0.01
000160 0a d7 23 3c 0a d7 23 3c 0a d7 23 3c 0a d7 23 3c
       0.01 0.01 0.01 0.01
000170 0a d7 23 3c 0a d7 23 3c 0a d7 23 3c 0a d7 23 3c
       0.01 0.01 0.01 0.01
000180 0a d7 23 3c 0a d7 23 3c 0a d7 23 3c 0a d7 23 3c
       0.01 0.01 0.01 0.01
000190 0a d7 23 3c 0a d7 23 3c 0a d7 23 3c 0a d7 23 3c
       0.01 0.01 0.01 0.01
0001a0 0a d7 23 3c 0a d7 23 3c 0a d7 23 3c 0a d7 23 3c
       0.01 0.01 0.01 0.01
0001b0 0a d7 23 3c 0a d7 23 3c 0a d7 23 3c 0a d7 23 3c
       0.01 0.01 0.01 0.01
0001c0 0a d7 23 3c 0a d7 23 3c 0a d7 23 3c 0a d7 23 3c
       0.01 0.01 0.01 0.01
0001d0 0a d7 23 3c 0a d7 23 3c 0a d7 23 3c 0a d7 23 3c
       0.01 0.01 0.01 0.01
0001e0 0a d7 23 3c 0a d7 23 3c 0a d7 23 3c 0a d7 23 3c
       0.01 0.01 0.01 0.01
0001f0 0a d7 23 3c 0a d7 23 3c 0a d7 23 3c 0a d7 23 3c
       0.01 0.01 0.01 0.01

fc2.weight f4 [128, 128]
000000 d9 f6 e4 bd 46 05 f7 bd 9d 30 09 bd be 4a 82 bd
       -0.11179895 -0.12061553 -0.033493627 -0.06361912
000010 40 24 69 bd 76 9d e7 bd 93 37 ca 3d 9d 53 e5 bc
       -0.056919336 -0.1130933 0.09873881 -0.027993971
000020 dc a6 26 bd 75 8d 8f bd d6 fa 30 bd fd 66 85 3d
       -0.040686473 -0.07009403 -0.043207966 0.06513784
000030 bf bc 92 3d 3b 11 0d 3d 29 34 e8 bd 24 23 be 3d
       0.07164907 0.03444026 -0.11338074 0.09284046
000040 47 6b a7 3d 76 18 03 ba de f7 c5 bd 05 26 9a 3d
       0.081747584 -0.00050008984 -0.096664175 0.07526783
000050 82 e6 a8 bd d4 c3 05 3e fb 08 b8 3d ee e5 4a bd
       -0.08247091 0.13062984 0.08986088 -0.049535684
000060 24 ba 18 be c3 07 f7 3d e6 dd 3f 3d 82 ea 54 3d
       -0.14914757 0.12062027 0.04684248 0.051981457
000070 79 2d b9 3c 95 53 fd 3d 2d ee 7a bb b0 3f 16 3e
       0.02260469 0.12369458 -0.0038288936 0.14672732
000080 d9 d8 93 bd 82 73 40 bc 72 1b 7c bd 68 b0 e8 3d
       -0.07219095 -0.011746289 -0.06154961 0.11361772
000090 17 53 f1 3d 0f 4d 08 3c 7c 00 b7 3c ac e3 4a 3c
       0.11783426 0.008319153 0.022339098 0.012383383
0000a0 0c 0b 0b 3d 51 4b e7 bd 0d 5c 7e 3d 54 b6 19 be
       0.033946082 -0.11293662 0.062099505 -0.15010959
0000b0 2c 2a 0f be 7f 33 2b 3a 2f 10 85 3d a2 1d 10 3e
       -0.13980931 0.0006530806 0.064972274 0.14073804
0000c0 50 53 f5 3c dd d5 b4 3d 79 d6 ac bc 30 19 fd 3d
       0.029946953 0.08829854 -0.021098362 0.1235832
0000d0 ed 66 94 3d a0 f8 c8 bd 8c d2 05 be 18 cc 99 bd
       0.07246194 -0.098130465 -0.13068599 -0.07509631
0000e0 f4 d5 15 be a5 3c 5b bd d6 da 5a bd 7b fd ed 3d
       -0.14632398 -0.053524632 -0.053431354 0.11620613
0000f0 c0 36 72 3d a7 59 b9 3d 75 8b d6 3d 64 e6 b8 3d
       0.059134245 0.09050303 0.10475818 0.090283185
000100 87 6a 79 3d 2c 3f f8 3d 10 9e 1c 3e cf d9 03 be
       0.060892608 0.12121424 0.15294671 -0.12876056
000110 0a 32 14 3e 82 8b 4c bc ab 5b b3 bd d0 5b b3 3d
       0.14472213 -0.012484433 -0.08757719 0.08757746
000120 f3 48 04 be b3 df 5e bd 4c f7 87 bd d2 e6 b3 3d
       -0.12918453 -0.054412555 -0.06638965 0.0878426
000130 b9 d4 df 3c b1 67 df bd 2b 91 8b 3d b4 5c 4c 3d
       0.027323114 -0.109084494 0.06814798 0.049893096
000140 50 ac 20 bd ba 60 c9 3d 44 57 c8 bc e1 dc 9d 3d
       -0.03922683 0.09832902 -0.024455674 0.07708145
000150 42 40 0f be 5f 94 9c 3c 9d 70 17 3c 61 d4 ac bd
       -0.13989356 0.019113718 0.009243158 -0.084389456
000160 1d 53 e5 3c f0 3f 14 3d 57 3a 03 3e d5 32 87 bb
       0.027993733 0.036193788 0.12815224 -0.0041259327
000170 23 12 02 bc 33 4b b0 3c 3f a7 c7 3d 37 69 5f 3d
       -0.007938894 0.021520233 0.097486965 0.0545437
000180 89 c2 f8 3d 1f c4 8e bd ca a1 93 3c 1e cc d4 bc
       0.1214648 -0.06971001 0.018021483 -0.025976237
000190 48 4a 7d 3d ce 87 32 3c 85 25 c5 3d e8 fa eb bd
       0.06183842 0.010896636 0.09626297 -0.11522466
0001a0 f0 4c d8 3c 9e b4 a1 bd cf 3f 89 bd 2f 39 cd 3d
       0.026403874 -0.07895778 -0.06701624 0.100206725
0001b0 74 51 ed bd 7b 26 6e bd d7 a9 0e be ca bf ac 3d
       -0.115878016 -0.058142167 -0.13931976 0.08435018
0001c0 ec 8d 13 be 2c 0f e6 bd 52 1f 9e bd b8 e0 8a bd
       -0.14409608 -0.112333626 -0.077208176 -0.06781143
0001d0 cb f7 0b be dc 74 02 3d 7d a6 db 3d 25 aa 93 3d
       -0.13668744 0.031849727 0.107251145 0.07210187
0001e0 5f 5b 1f 3d a0 68 17 be b3 19 c2 bc 4c 9d 36 3d
       0.038905498 -0.14786005 -0.023693895 0.044583604
0001f0 34 b6 82 bd 72 9e 00 3e 28 c9 2e 3d b7 d0 75 3d
       -0.06382409 0.12560442 0.042672306 0.0600135
000200 2e 0f b7 3b f8 c4 b7 bd ec 23 b1 3d 60 69 c1 3a
       0.0055865264 -0.08973116 0.0864943 0.0014756136
000210 17 79 09 be c7 da 19 be 6c c7 d5 3d 6a 02 83 b8
       -0.13425098 -0.15024863 0.10438427 -6.2470164e-05
000220 47 c6 81 bb 1e 3f b6 bd 09 ac 14 3e ee bf f5 3b
       -0.003960404 -0.088987574 0.14518751 0.0074996864
000230 ad a4 e9 bd 39 1f 02 3c f5 dd 94 3d 62 dc 03 3e
       -0.114083625 0.007942014 0.072688974 0.12877038
000240 08 0c a1 bd 54 d5 14 3e 4d d5 67 3c e6 a2 a2 bd
       -0.07863623 0.14534503 0.014149976 -0.07941227
000250 db e2 d9 3d bb e3 05 bd d8 64 05 be da f7 1a be
       0.10638972 -0.032687884 -0.1302675 -0.1513361
000260 5b ed e1 3d b0 a0 d4 3d 55 af cb bd 19 37 b7 bc
       0.110316 0.10382211 -0.09945551 -0.02236514
000270 ba d8 e5 3d 90 1e 98 bc 96 96 8f 3d 73 59 04 be
       0.11222978 -0.01856926 0.07011144 -0.12924747
000280 34 f9 05 bd 2b 22 c2 bd f9 24 40 bd a2 3b e7 3d
       -0.03270836 -0.09479173 -0.04691026 0.11290671
000290 2f 25 18 bd c8 54 e9 bd 37 ba a0 3d 99 ef d8 bb
       -0.037144836 -0.11393124 0.07848018 -0.006620359
0002a0 7f 3a 64 3d 7a 6a c1 bd 87 b6 31 3d b1 53 ef 3d
       0.05571985 -0.09444137 0.043386962 0.11685885
0002b0 99 27 98 bc a3 66 3b 3d 19 ef 69 bd be df d0 3d
       -0.01857357 0.04575218 -0.057112787 0.101989254
0002c0 06 1f e3 3d fe a6 bc 3d c5 cb 95 bd 13 b2 26 bd
       0.110899016 0.09211539 -0.073142566 -0.04069717
0002d0 4f a7 13 3e 9e dc 79 3d 02 53 16 be 28 b3 c1 3d
       0.14419292 0.061001413 -0.14680102 0.094579995
0002e0 c4 16 0c 3e 5a d6 01 3a ad cd b7 3d 91 c0 38 bd
       0.1368056 0.00049529003 0.089747764 -0.04510552
0002f0 00 08 a9 bd 33 0b 52 39 cd 1c 72 bd 70 a5 02 be
       -0.08253479 0.00020031333 -0.059109498 -0.12758422
000300 d3 b5 10 3e 53 d6 a0 3d c8 e4 18 3e a0 9d 8b 3d
       0.1413186 0.07853379 0.14931023 0.06817174
000310 39 75 f5 bd 14 17 05 3e 32 b4 b8 3d aa bf ad 3d
       -0.11985249 0.12997085 0.090187445 0.08483823
000320 d6 42 e1 bd 5e fa 05 bc 16 23 a7 3d b3 cf f6 3d
       -0.10999076 -0.008177368 0.08160989 0.12051334
000330 35 94 32 3d 84 9d e3 bd 5a b4 aa 3d 9a 10 da 3d
       0.043598372 -0.11114028 0.083351806 0.10647698
000340 01 8c 2b 3d 8c d0 07 3e f0 21 43 3d e9 1a 05 be
       0.041881565 0.13263148 0.047639787 -0.12998547
000350 87 5d b7 bc fe 4d 13 bd 73 30 9f 3d 4c 08 aa bd
       -0.022383465 -0.03596305 0.07772913 -0.08302364
000360 c1 37 94 3d d4 bd f5 3c 6a 7e 70 bd c2 2b 93 bc
       0.07237197 0.029997744 -0.058714308 -0.017965201
000370 bd 66 84 3c e6 27 8a 3d 08 98 1c 3e 0f 1f dd bc
       0.01616227 0.06745891 0.1529237 -0.026992349
000380 20 97 9c 3a f2 3d 29 3d ba c6 7b 3d 7f 36 9a 3d
       0.0011946894 0.04131884 0.061468817 0.075299256
000390 7a a5 84 bd ed 43 41 3d e2 c5 ae 3c 9a 10 ac 3d
       -0.06476875 0.04718392 0.021334592 0.08401604
0003a0 f7 ce fe 3d 52 fc e1 3d 11 0d ce bd 84 83 41 bd
       0.12441819 0.110344544 -0.10061086 -0.047244564
0003b0 49 2f 10 3d 33 7f 17 3e 4d 4f be 3d 11 1d 88 bd
       0.035201345 0.14794616 0.09292469 -0.06646169
0003c0 72 57 49 bd 4f ac 18 3e fb 81 fe b9 d2 43 94 3d
       -0.04915566 0.1490948 -0.00048543498 0.07239498
0003d0 0d 9c b1 bd 3d 58 ad bd 75 c8 13 be 66 f8 82 bd
       -0.086723424 -0.08464096 -0.14431937 -0.063950345
0003e0 d9 f7 56 3c be f2 e4 3d 81 3f 73 3d 37 68 14 be
       0.013120615 0.11179112 0.059386734 -0.1449288
0003f0 1a e2 97 bd dc 5d 80 bd cc 94 ac 3d 5a 1a 2b bd
       -0.07416172 -0.06267902 0.08426818 -0.041773178

fc2.bias f4 [128]
000000 0a d7 23 3c 0a d7 23 3c 0a d7 23 3c 0a d7 23 3c
       0.01 0.01 0.01 0.01
000010 0a d7 23 3c 0a d7 23 3c 0a d7 23 3c 0a d7 23 3c
       0.01 0.01 0.01 0.01
000020 0a d7 23 3c 0a d7 23 3c 0a d7 23 3c 0a d7 23 3c
       0.01 0.01 0.01 0.01
000030 0a d7 23 3c 0a d7 23 3c 0a d7 23 3c 0a d7 23 3c
       0.01 0.01 0.01 0.01
000040 0a d7 23 3c 0a d7 23 3c 0a d7 23 3c 0a d7 23 3c
       0.01 0.01 0.01 0.01
000050 0a d7 23 3c 0a d7 23 3c 0a d7 23 3c 0a d7 23 3c
       0.01 0.01 0.01 0.01
000060 0a d7 23 3c 0a d7 23 3c 0a d7 23 3c 0a d7 23 3c
       0.01 0.01 0.01 0.01
000070 0a d7 23 3c 0a d7 23 3c 0a d7 23 3c 0a d7 23 3c
       0.01 0.01 0.01 0.01
000080 0a d7 23 3c 0a d7 23 3c 0a d7 23 3c 0a d7 23 3c
       0.01 0.01 0.01 0.01
000090 0a d7 23 3c 0a d7 23 3c 0a d7 23 3c 0a d7 23 3c
       0.01 0.01 0.01 0.01
0000a0 0a d7 23 3c 0a d7 23 3c 0a d7 23 3c 0a d7 23 3c
       0.01 0.01 0.01 0.01
0000b0 0a d7 23 3c 0a d7 23 3c 0a d7 23 3c 0a d7 23 3c
       0.01 0.01 0.01 0.01
0000c0 0a d7 23 3c 0a d7 23 3c 0a d7 23 3c 0a d7 23 3c
       0.01 0.01 0.01 0.01
0000d0 0a d7 23 3c 0a d7 23 3c 0a d7 23 3c 0a d7 23 3c
       0.01 0.01 0.01 0.01
0000e0 0a d7 23 3c 0a d7 23 3c 0a d7 23 3c 0a d7 23 3c
       0.01 0.01 0.01 0.01
0000f0 0a d7 23 3c 0a d7 23 3c 0a d7 23 3c 0a d7 23 3c
       0.01 0.01 0.01 0.01
000100 0a d7 23 3c 0a d7 23 3c 0a d7 23 3c 0a d7 23 3c
       0.01 0.01 0.01 0.01
000110 0a d7 23 3c 0a d7 23 3c 0a d7 23 3c 0a d7 23 3c
       0.01 0.01 0.01 0.01
000120 0a d7 23 3c 0a d7 23 3c 0a d7 23 3c 0a d7 23 3c
       0.01 0.01 0.01 0.01
000130 0a d7 23 3c 0a d7 23 3c 0a d7 23 3c 0a d7 23 3c
       0.01 0.01 0.01 0.01
000140 0a d7 23 3c 0a d7 23 3c 0a d7 23 3c 0a d7 23 3c
       0.01 0.01 0.01 0.01
000150 0a d7 23 3c 0a d7 23 3c 0a d7 23 3c 0a d7 23 3c
       0.01 0.01 0.01 0.01
000160 0a d7 23 3c 0a d7 23 3c 0a d7 23 3c 0a d7 23 3c
       0.01 0.01 0.01 0.01
000170 0a d7 23 3c 0a d7 23 3c 0a d7 23 3c 0a d7 23 3c
       0.01 0.01 0.01 0.01
000180 0a d7 23 3c 0a d7 23 3c 0a d7 23 3c 0a d7 23 3c
       0.01 0.01 0.01 0.01
000190 0a d7 23 3c 0a d7 23 3c 0a d7 23 3c 0a d7 23 3c
       0.01 0.01 0.01 0.01
0001a0 0a d7 23 3c 0a d7 23 3c 0a d7 23 3c 0a d7 23 3c
       0.01 0.01 0.01 0.01
0001b0 0a d7 23 3c 0a d7 23 3c 0a d7 23 3c 0a d7 23 3c
       0.01 0.01 0.01 0.01
0001c0 0a d7 23 3c 0a d7 23 3c 0a d7 23 3c 0a d7 23 3c
       0.01 0.01 0.01 0.01
0001d0 0a d7 23 3c 0a d7 23 3c 0a d7 23 3c 0a d7 23 3c
       0.01 0.01 0.01 0.01
0001e0 0a d7 23 3c 0a d7 23 3c 0a d7 23 3c 0a d7 23 3c
       0.01 0.01 0.01 0.01
0001f0 0a d7 23 3c 0a d7 23 3c 0a d7 23 3c 0a d7 23 3c
       0.01 0.01 0.01 0.01

out.weight f4 [1, 128]
000000 7e 53 4a be c7 8c 1c bd bf d5 69 3c 87 22 fc bd
       -0.19758412 -0.038220193 0.014272152 -0.12311273
000010 c5 23 38 3e a3 5d 3f 3e 05 12 c0 3c e1 d8 0e 3e
       0.17982395 0.18688063 0.023446092 0.1394992
000020 22 d5 39 be 9d ce d7 ba df 8c fb 3c a4 60 20 be
       -0.1814771 -0.0016464774 0.030706821 -0.15661865
000030 48 ec b6 3d 36 dd cf bc 0a 8d 2b be 80 98 0e 3e
       0.08931786 -0.025374036 -0.16753021 0.13925362
000040 30 82 93 3d fa 16 a6 bd e9 77 2d 3e b9 3c d5 bd
       0.07202566 -0.08109851 0.16940273 -0.104119726
000050 7c f6 16 3d 94 40 0a 3d 1f 90 c2 bc b9 f0 2a 3e
       0.03685616 0.033752993 -0.023750363 0.16693391
000060 ac 0f bb bc d3 42 59 3e 4b 96 3d be 6e 89 47 be
       -0.022834621 0.21216898 -0.18514363 -0.19486019
000070 e5 02 db bd 3a ba eb 3d bb e6 10 be 33 c3 a0 bd
       -0.106939115 0.11510129 -0.14150517 -0.07849731
000080 9c d9 10 3e d0 31 41 3e 32 68 0f 3e 2e 40 d4 3d
       0.14145511 0.18866658 0.14004591 0.10363804
000090 3e 89 28 be 74 f3 59 be 69 bf c1 3b 79 4c 7a bd
       -0.16458604 -0.21284276 0.0059127104 -0.061108086
0000a0 71 c9 30 be df ab 9d bd 8b e9 b7 bd a1 97 6a bd
       -0.17264344 -0.076987974 -0.08980092 -0.05727351
0000b0 3f 4e c0 3d 7d 2e bd 3d 63 d4 24 3e 51 91 4f be
       0.09389924 0.092373826 0.16096644 -0.20270278
0000c0 ff e2 3e 3e 06 eb 97 3d 2b cf 64 3d 4a 67 8f 3d
       0.1864128 0.07417874 0.055861633 0.07002123
0000d0 f1 5e fc 3d 79 8d 37 3e fd 23 2a be 5f 52 13 3e
       0.12322796 0.17925061 -0.16615291 0.14386891
0000e0 7a 51 0c be 56 61 24 bd f3 a1 1c be 24 5e e2 3d
       -0.13702956 -0.04013189 -0.15296154 0.11053112
0000f0 9d d9 80 3b 03 b1 37 be 87 32 be bd 9c 11 22 3e
       0.0039321915 -0.17938618 -0.09286981 0.1582703
000100 2f 6d cf 3d 42 41 45 be af 7e 36 3e 6b 16 ba bd
       0.10128247 -0.19263175 0.17821763 -0.09086307
000110 30 f2 46 be 8b 1a 24 bd 4a 2d 58 3e 83 20 27 bd
       -0.19428325 -0.040064376 0.21111026 -0.04080249
000120 e6 d2 28 be c1 93 2b 3e 46 e4 99 bc 80 a9 f0 bc
       -0.16486701 0.16755582 -0.018785607 -0.029377699
000130 ef 24 8c 3d 37 64 1a 3d d9 90 54 3e 9e 8d 4c be
       0.06842982 0.03769323 0.2075838 -0.19975898
000140 7e 47 ee bd d1 c2 75 bc d1 32 d0 3d c2 ea e4 bd
       -0.1163473 -0.015000061 0.101659425 -0.11177589
000150 07 83 3b be ac b9 a0 bd 47 b0 33 bd 98 d1 7f bd
       -0.18311702 -0.07847914 -0.043869283 -0.062455744
000160 61 7e 15 be 1f 95 3b be c1 cc dc bc e5 78 36 3e
       -0.14598991 -0.18318604 -0.026953103 0.17819555
000170 b8 cd bd bd d3 0d ff bd 8d b9 25 3e c7 73 5c 3e
       -0.09267753 -0.12453809 0.16184063 0.2152854
000180 15 fd fe 3d 1e cd c9 bd f0 4a 58 be 46 26 7f bd
       0.12450615 -0.09853576 -0.21122336 -0.06229236
000190 d6 5e ee bd 1e ed 23 3e 2e cb 2e be 73 fc 48 3e
       -0.11639182 0.16008422 -0.17069694 0.19627552
0001a0 72 0f 6e bd a4 b7 42 bd f4 f3 0b 3d 1e 1f 14 be
       -0.0581202 -0.047538415 0.0341682 -0.14464995
0001b0 35 af 0e 3e 09 bd da bd 16 8a 0e 3e e3 b8 be 3d
       0.13934024 -0.10680587 0.13919863 0.09312608
0001c0 04 c3 23 be c7 3b 43 3e 14 03 47 be 95 9a 28 be
       -0.15992361 0.19065772 -0.19434768 -0.16465218
0001d0 83 86 06 be cb b0 94 3d cc b3 03 be 2c a4 08 bd
       -0.1313725 0.07260283 -0.12861556 -0.03335969
0001e0 04 66 1d 3e e1 ab 93 3d 1e 84 28 be 58 19 33 be
       0.15370947 0.07210518 -0.16456649 -0.17490137
0001f0 46 b4 1c 3c 2c 90 58 3d a6 e9 a4 bd 10 f4 14 3e
       0.009564465 0.052871868 -0.080523774 0.14546227
